model/modelo_checkpoint200_conv.pt (torch, 579079 bytes, 10 tensors)

layer1.0.weight f4 [18, 3, 5, 5]
-0.042216066 -0.006266561 -0.018636769 -0.04740406 -0.14808138 0.11670666 -0.01665239 -0.02161909
0.0059112627 0.021426369 0.070130184 0.09328999 -0.060030166 0.031304065 0.030680878 -0.025128402
-0.104827724 0.090663746 0.093619436 0.030255277 0.028371787 -0.16858783 -0.045090333 0.032098897
0.010753777 -0.09237532 0.06356572 0.028622566 -0.030226316 -0.19885498 -0.1485602 0.014324406
0.13827531 0.077620745 -0.010531053 -0.15042675 0.04704209 -0.08780478 -0.045500115 -0.00895475
-0.30263186 -0.1151301 -0.18703784 0.02292891 -0.1269083 -0.22815424 -0.2652468 -0.18337257
-0.17364389 -0.047271665 0.17334244 0.28308955 0.15659559 0.20277816 -0.09888384 0.07084959
0.14894137 0.1993594 0.25720817 0.18022951 0.04388368 0.16849756 0.26680753 0.19811799
0.07540368 -0.13952203 0.07311971 0.10663499 0.14381635 0.022566663 -0.11334805 0.087071
0.025221448 0.116527155 0.10350613 -0.13156138 0.1349094 0.0587362 -0.05142585 0.052329786
-0.23768447 0.05742414 0.16497676 0.16926628 0.15495954 -0.2808844 -0.25684774 -0.00928438
0.17874315 0.027822478 0.015057649 -0.02850538 -0.14361364 0.039209384 0.26698074 0.12738355
-0.021057302 -0.06799259 -0.18295987 0.015377768 -0.12506486 0.20683204 0.13254242 0.14668055
0.04645709 -0.34856534 0.0017431014 -0.017539235 0.20237345 0.25064054 -0.28772962 -0.22001135
-0.005934113 0.103652515 0.25342566 -0.051667508 -0.017959109 -0.16852589 0.0031580837 0.23716317
0.0924799 -0.09559995 -0.108094536 -0.19117118 -0.08305013 -0.07593387 0.20939997 0.16404971
0.25934598 0.199248 -0.34005827 -0.14870036 0.19685249 0.1495795 0.23285565 -0.17185952
-0.30939683 -0.093081966 0.10953501 0.16645774 -0.058407497 -0.102653526 -0.24863538 0.0064648218
0.06025627 -0.044342488 -0.010315974 -0.122469634 -0.24773279 -0.033598058 -0.07098991 0.13611224
-0.13810612 0.015671544 -0.07695293 -0.06403069 0.2624121 -0.2572596 0.023255229 -0.075039774
-0.01969369 0.13523999 -0.25302595 -0.10134802 -0.11943773 0.14748597 0.15097077 -0.003114468
0.12732427 0.039534874 -0.065075256 -0.018065268 -0.08297247 0.0622819 0.06377821 -0.08750378
0.06915607 -0.2563077 -0.06057413 -0.06578546 0.07934494 0.14384042 -0.21160614 0.17385443
0.08941771 -0.15591684 0.080548376 -0.18527985 0.06348246 -0.11355047 0.099378034 0.1857647
0.07063491 0.19441842 0.16075443 -0.108410664 0.02013055 -0.20561251 0.0044497284 0.01044124
0.047351733 0.11134162 -0.06815964 0.055767946 0.030777905 -0.09629853 0.1798721 -0.22369957
0.24038097 0.03346007 -0.15481804 0.09577193 -0.21597323 0.14675328 -0.048754457 -0.06280815
0.12535086 0.07537878 0.24614145 0.104232006 -0.0068309503 -0.13720518 -0.19444722 -0.103260644
-0.055432085 -0.14715996 -0.13191476 -0.15255783 -0.15526928 -0.12102986 -0.056544583 -0.076959945
-0.12465237 -0.012761725 0.050706606 -0.16024573 -0.17629682 -0.33592838 -0.06486481 -0.124001965
-0.1645457 -0.233002 -0.21591853 -0.011568483 -0.11009745 -0.051667683 -0.0802607 -0.116067246
-0.09204498 -0.15877616 -0.06756723 0.084972814 0.0042000944 0.055246033 -0.10374115 0.10606115
00000000: c1ea 2cbd b957 cdbb 23ac 98bc c22a 42bd
00000010: a5a2 17be e703 ef3d 986a 88bc 851a b1bc
00000020: 44b3 c13b 5a86 af3c 6aa0 8f3d d30e bf3d
00000030: 31e2 75bd b138 003d 7756 fb3c 14da cdbc
00000040: ebaf d6bd eaad b93d 8cbb bf3d ead9 f73c
00000050: f36b e83c 4aa2 2cbe a4b0 38bd 227a 033d
00000060: 9c30 303c 462f bdbd bf2e 823d df79 ea3c
00000070: 2e9d f7bc a4a0 4bbe 2a20 18be eab0 6a3c
00000080: 0b98 0d3e a0f7 9e3d 708a 2cbc 7809 1abe
00000090: 35af 403d fed2 b3bd 545e 3abd f2b6 12bc
000000a0: 90f2 9abe 54c9 ebbd d986 3fbe 69d5 bb3c
000000b0: 40f4 01be 44a1 69be 6ece 87be 05c6 3bbe
000000c0: b4cf 31be ef9f 41bd ae80 313e 1df1 903e
000000d0: 985a 203e 14a5 4f3e 9c83 cabd 9719 913d
000000e0: 1684 183e df24 4c3e cab0 833e 168e 383e
000000f0: 60bf 333d a08a 2c3e ff9a 883e 71df 4a3e
00000100: 3f6d 9a3d ddde 0ebe c9bf 953d 7263 da3d
00000110: 9844 133e b9dd b83c 0623 e8bd 4852 b23d
00000120: 369d ce3c caa5 ee3d 06fb d33d 07b8 06be
00000130: b125 0a3e 5f95 703d e9a3 52bd c257 563d
00000140: 8f63 73be 9335 6b3d abef 283e 2454 2d3e
00000150: b7ad 1e3e 14d0 8fbe 8c81 83be 831d 18bc
00000160: 7208 373e f7eb e33c 5cb4 763c 1d84 e9bc
00000170: 740f 13be 059a 203d b3b1 883e d570 023e
00000180: 5d80 acbc b33f 8bbd d559 3bbe 09f3 7b3c
00000190: 0111 00be c7cb 533e 33b9 073e 6d33 163e
000001a0: ca49 3e3d 2877 b2be c778 e43a 71ae 8fbc
000001b0: fc3a 4f3e f553 803e 4c51 93be a84a 61be
000001c0: f372 c2bb c547 d43d 02c1 813e 4fa1 53bd
000001d0: fb1e 93bc 0d92 2cbe daf7 4e3b e7da 723e
000001e0: 1a66 bd3d e8c9 c3bd ab60 ddbd 61c2 43be
000001f0: 3016 aabd 3883 9bbd f26c 563e a6fc 273e
00000200: ffc8 843e ab07 4c3e 1e1c aebe e844 18be
00000210: b393 493e 5e2b 193e b671 6e3e f1fb 2fbe
00000220: 4369 9ebe c2a1 bebd e453 e03d e673 2a3e
00000230: b33c 6fbd 033c d2bd 469a 7ebe dbd6 d33b
00000240: 47cf 763d 78a0 35bd 5504 29bc 5cd1 fabd
00000250: aaad 7dbe 1e9e 09bd 2863 91bd 0261 0b3e
00000260: b16b 0dbe 9c61 803c 7f99 9dbd 8622 83bd
00000270: e15a 863e 88b7 83be c081 be3c 74ae 99bd
00000280: a954 a1bc 5a7c 0a3e 9e8c 81be 8d8f cfbd
00000290: c59b f4bd 9006 173e 1598 1a3e 1a1c 4cbb
000002a0: 4b61 023e 52ef 213d 2d46 85bd 9dfd 93bc
000002b0: 78ed a9bd 4e1b 7f3d 269e 823d 2f35 b3bd
000002c0: b3a1 8d3d c33a 83be 941c 78bd 87ba 86bd
000002d0: 9a7f a23d e74a 133e 48af 58be e506 323e
000002e0: a220 b73d aaa8 1fbe 8cf6 a43d 00ba 3dbe
000002f0: 1803 823d 268d e8bd b686 cb3d 1a39 3e3e
00000300: 09a9 903d 9f15 473e cf9c 243e 6906 debd
00000310: d3e8 a43c 168c 52be 07cf 913b bc11 2b3c
00000320: e4f3 413d 1307 e43d 4897 8bbd ee6c 643d
00000330: f221 fc3c 2a38 c5bd 6430 383e 8011 65be
00000340: 6e26 763e 6d0d 093d 9f88 1ebe 1324 c43d
00000350: 1628 5dbe 7e46 163e c1b2 47bd 8fa1 80bd
00000360: fa5b 003e 3160 9a3d 810c 7c3e 9777 d53d
00000370: 2ad6 dfbb 847f 0cbe 2c1d 47be 517a d3bd
00000380: c10c 63bd 1ab1 16be aa14 07be 1f38 1cbe
00000390: e9fe 1ebe 81de f7bd 4b9b 67bd 2d9d 9dbd
000003a0: be49 ffbd 8e16 51bc bbb1 4f3d 7517 24be
000003b0: 2787 34be cefe abbe d7d7 84bd bef4 fdbd
000003c0: ab7e 28be 1498 6ebe bf19 5dbe bc89 3dbc
000003d0: c67a e1bd 7ea1 53bd b95f a4bd aab4 edbd
000003e0: 1482 bcbd 3896 22be b060 8abd 3a06 ae3d
000003f0: f2a0 893b aa49 623d 3d76 d4bd 9736 d93d

layer1.0.bias f4 [18]
-0.073694214 0.07710619 0.009898081 0.27643946 0.03411306 0.027255796 0.038816467 -0.07431006
-0.00838087 0.1327518 -0.102438256 0.0030492723 0.1063953 0.1624619 -0.06086248 0.026673958
0.03048291 0.13715181
00000000: feec 96bd dae9 9d3d 902b 223c 7989 8d3e
00000010: 23ba 0b3d 8c47 df3c 04fe 1e3d df2f 98bd
00000020: eb4f 09bc 16f0 073e 26cb d1bd 4dd6 473b
00000030: c7e5 d93d 6a5c 263e f04a 79bd 5883 da3c
00000040: 4cb7 f93c 8671 0c3e

layer2.0.weight f4 [28, 18, 5, 5]
-0.013207615 0.100842 0.058112513 0.05004238 -0.053185847 0.039663527 0.09745036 0.07519475
0.087250605 0.09314138 0.056557953 -0.008927328 -0.011167228 0.038658604 0.016360395 -0.096508816
-0.0026772164 -0.02723749 -0.016195914 0.06988943 -0.22682896 -0.16829966 -0.024623023 -0.036051903
-0.006978389 -0.0067186477 0.049813807 0.11794631 0.1423763 0.097078435 0.06005877 0.029769044
-0.015171519 0.11179591 -0.06779331 0.07583925 0.056425218 0.024758244 -0.0429039 -0.07059045
0.15577644 -0.048846133 -0.07967136 -0.07777537 0.018429324 0.07259891 -0.0027305607 -0.08897644
0.050616458 0.13764295 -0.027410647 0.022318626 0.13231725 -0.088295795 -0.22224279 0.013250259
-0.00730594 0.033221796 -0.024137376 -0.19810612 0.047674187 0.21522379 0.032491513 0.048807472
0.31844866 0.15592319 0.28339365 0.07410728 0.14040107 0.2811832 -0.05223745 0.07909658
0.06260483 0.18842064 0.19165695 0.13561572 0.01828409 0.0208901 0.018441424 -0.0072759828
0.13716891 0.10531734 -0.0073131127 -0.047682527 -0.009530454 0.10308654 0.08328777 -0.04650065
0.04106518 -0.08184489 -0.047139075 -0.054182477 0.0146004595 -0.04093127 -0.081620134 -0.0009662756
-0.01868895 0.06474368 0.06769866 0.026594372 -0.08814524 0.13464259 0.10327909 0.026406616
-0.13014339 -0.11238738 0.063595235 -0.004308329 -0.02795034 -0.1471887 0.021145882 -0.009787068
0.03945853 0.060401738 0.01079128 0.011320726 -0.0761214 0.0760754 0.005206351 0.085214905
-0.24693218 -0.19940111 -0.1346208 -0.07782011 0.23841916 -0.01663689 -0.051045045 0.07635179
-0.0380765 -0.07582989 -0.20453681 -0.09439687 -0.1680249 -0.27230042 -0.27132487 -0.2247873
-0.26479062 -0.17068581 -0.22376049 -0.22592857 -0.07700609 -0.12539677 0.034143146 -0.124460705
-0.106198944 0.056590516 -0.024783887 -0.082626835 0.013579194 0.038278982 0.03603397 0.091836125
0.044743106 0.009262566 0.04601479 0.061562367 0.106946975 0.049857326 -0.14323494 -0.014586878
-0.00023787044 -0.09596737 -0.085171625 -0.05248301 -0.017663412 0.090212554 -0.09369081 -0.037605964
0.17088456 -0.059250843 0.11282545 0.114107825 0.15081377 -0.02237765 -0.3918121 0.08469989
0.072803386 0.06212758 0.030959554 0.103148244 -0.01235345 -0.0021386675 0.012816919 0.048423797
0.11323924 -0.08633233 0.03391934 0.017355835 0.036097813 0.16179451 -0.0860984 0.0048615793
-0.118155316 0.23265398 0.00023649346 -0.08748591 0.045510508 0.04360973 -0.2828131 0.089362785
0.088370875 0.10545844 0.08227305 -0.029811483 0.06298034 -0.009078273 0.13934018 0.12719952
0.09540269 -0.05748828 0.0666927 0.27541447 0.03409807 0.098979324 -0.00053285406 0.0989159
-0.0067617116 0.16290478 0.34846565 0.03416966 0.22573963 0.13365963 0.35419238 0.010340883
0.101886936 -0.03512851 0.013360386 -0.10110213 0.011732118 -0.0069986903 -0.020386375 0.08098758
-0.07362492 -0.043410394 0.012894788 0.050355833 0.086354606 -0.12189882 -0.07585195 0.047478605
-0.035334986 0.02546257 -0.026177373 -0.07685081 0.009718452 -0.1157102 -0.17990626 -0.06873152
0.069294006 -0.14359751 -0.042606838 0.018847495 -0.023377454 0.067940384 -0.019593587 0.044315122
00000000: c164 58bc 4086 ce3d 6307 6e3d 3df9 4c3d
00000010: 67d9 59bd 3976 223d 0e94 c73d b5ff 993d
00000020: 72b0 b23d e8c0 be3d 50a9 673d ed43 12bc
00000030: c0f6 36bc 7c58 1e3d 3c06 863c 6aa6 c5bd
00000040: 3d74 2fbb 2821 dfbc 4bad 84bc 3122 8f3d
00000050: da45 68be bf56 2cbe 39b6 c9bc 29ab 13bd
00000060: f8aa e4bb 1a28 dcbb 9009 4c3d d68d f13d
00000070: 18cb 113e 0fd1 c63d 2f00 763d 36de f33c
00000080: f691 78bc 41f5 e43d 38d7 8abd 9c51 9b3d
00000090: 211e 673d cdd1 ca3c 00bc 2fbd ba91 90bd
000000a0: dc83 1f3e e212 48bd bd2a a3bd b148 9fbd
000000b0: 18f9 963c bdae 943d 35f3 32bb 4839 b6bd
000000c0: 3453 4f3d 46f2 0c3e 4b8c e0bc 8dd5 b63c
000000d0: 2c7e 073e 6dd4 b4bd 9d93 63be 9d17 593c
000000e0: ab66 efbb 9413 083d bfbb c5bc 55dc 4abe
000000f0: 0246 433d a063 5c3e d215 053d 58ea 473d
00000100: b40b a33e 54aa 1f3e f918 913e 8fc5 973d
00000110: 4cc5 0f3e 3ff7 8f3e f0f6 55bd 63fd a13d
00000120: f636 803d 57f1 403e b841 443e d9de 0a3e
00000130: 84c8 953c b721 ab3c 7812 973c 5e6b eebb
00000140: 0276 0c3e 9eb0 d73d d6a2 efbb c14e 43bd
00000150: 9f25 1cbc 091f d33d c792 aa3d 7777 3ebd
00000160: f633 283d 4b9e a7bd e714 41bd 72ee 5dbd
00000170: c436 6f3c 8ca7 27bd 7528 a7bd a84d 7dba
00000180: 9219 99bc 5698 843d 98a5 8a3d 71dc d93c
00000190: 7e85 b4bd bfdf 093e fd83 d33d b052 d83c
000001a0: 4f44 05be 5b2b e6bd 383e 823d e22c 8dbb
000001b0: 1df8 e4bc a2b8 16be 213a ad3c f059 20bc
000001c0: 449f 213d d067 773d e9cd 303c 917a 393c
000001d0: 89e5 9bbd 6bcd 9b3d 0a9a aa3b 2785 ae3d
000001e0: cadb 7cbe ce2f 4cbe 09da 09be 2660 9fbd
000001f0: 2724 743e 164a 88bc 9c14 51bd 545e 9c3d
00000200: 1bf6 1bbd b44c 9bbd 1972 51be 2553 c1bd
00000210: b80e 2cbe f66a 8bbe 18eb 8abe a42e 66be
00000220: a392 87be 43c8 2ebe 7821 65be d259 67be
00000230: 5eb5 9dbd 0368 00be afd9 0b3d 41e5 febd
00000240: d57e d9bd 75cb 673d 9407 cbbc 4238 a9bd
00000250: 457b 5e3c 6cca 1c3d 5b98 133d 9414 bc3d
00000260: 8c44 373d 05c2 173c 017a 3c3d d228 7c3d
00000270: 0407 db3d 3237 4c3d 2eac 12be cdfd 6ebc
00000280: dc6c 79b9 8a8a c4bd 766e aebd 6df8 56bd
00000290: dcb2 90bc 5cc1 b83d f8e0 bfbd b608 1abd
000002a0: 5dfc 2e3e 03b1 72bd 0811 e73d 5db1 e93d
000002b0: ed6e 1a3e 5551 b7bc 989b c8be 2377 ad3d
000002c0: f119 953d 7d79 7e3d e49e fd3c 633f d33d
000002d0: 2066 4abc e328 0cbb 0efe 513c 0858 463d
000002e0: fae9 e73d 01cf b0bd 02ef 0a3d d32d 8e3c
000002f0: 4ddb 133d 76ad 253e 5c54 b0bd e24d 9f3b
00000300: 6afb f1bd d83c 6e3e 3bfb 7739 d02b b3bd
00000310: 3a69 3a3d 1ea0 323d e1cc 90be d603 b73d
00000320: cafb b43d 98fa d73d c67e a83d 3637 f4bc
00000330: d6fb 803d 09bd 14bc 31af 0e3e 9740 023e
00000340: 7c62 c33d d578 6bbd 2f96 883d 2003 8d3e
00000350: 6baa 0b3d acb5 ca3d 3baf 0bba 6b94 ca3d
00000360: 5991 ddbb 83d0 263e 176a b23e 7cf5 0b3d
00000370: 4a28 673e 12de 083e b458 b53e cf6c 293c
00000380: 19aa d03d eae2 0fbd 85e5 5a3c a20e cfbd
00000390: 1238 403c 4555 e5bb 5401 a7bc d1dc a53d
000003a0: a9c8 96bd 19cf 31bd a944 533c eb41 4e3d
000003b0: afda b03d 17a6 f9bd 4458 9bbd ed78 423d
000003c0: 6bbb 10bd e196 d03c ee71 d6bc f563 9dbd
000003d0: 243a 1f3c 78f9 ecbd 5939 38be 1cc3 8cbd
000003e0: 04ea 8d3d 3a0b 13be 8284 2ebd 1066 9a3c
000003f0: 1382 bfbc 5424 8b3d bb82 a0bc c683 353d

layer2.0.bias f4 [28]
-0.22612642 0.053394265 -0.1587531 -0.085217334 0.18372466 0.09075625 -0.28426686 -0.21922258
0.035629854 0.005792728 0.005142886 -0.08163819 -0.13816862 0.110477574 0.07989313 0.121618696
-0.049293697 0.006266658 -0.07446534 0.06330244 0.011168766 0.33725002 0.023901103 -0.0045717815
0.06417875 -0.009053746 0.1842741 -0.014649102
00000000: af8d 67be f2b3 5a3d 2c90 22be 6d86 aebd
00000010: 5122 3c3e 6ade b93d 6d8b 91be e27b 60be
00000020: 9cf0 113d edd0 bd3b a885 a83b ec31 a7bd
00000030: 137c 0dbe 1142 e23d 029f a33d 3913 f93d
00000040: 30e8 49bd 8a58 cd3b 4981 98bd b6a4 813d
00000050: 33fd 363c 09ac ac3e 3fcc c33c e2ce 95bb
00000060: 2670 833d 2a56 14bc 5ab2 3c3e ca02 70bc

denseLayer.1.weight f4 [160, 700]
-3.173e-42 1.015e-42 -9.8419e-41 3.883e-42 -5.4995e-41 4.7207e-41 6.7058e-41 -6.3812e-41
-1.9414e-41 7.348e-42 -4.6882e-41 3.974e-41 -1.8297e-41 -9.638e-41 1.9484e-41 9.0618e-41
-1.36942e-40 -5.4089e-41 1.00886e-40 -1.9121e-41 1.18871e-40 8.7028e-41 8.823e-41 3.2388e-41
6.9773e-41 -4.569981e-23 2.705e-41 -9.539e-42 -2.613e-42 1.5497e-41 -9.381874e-24 9.705e-42
-2.474e-41 3.0603e-41 9.083e-42 1.02611e-40 1.53275e-40 7.163888e-34 1.1012412e-35 1.8748e-41
-5.0664e-41 -6.292e-41 -2.3832e-41 3.6023e-41 8.593e-41 6.2868e-41 2.2994e-41 -8.719e-41
-7.9522e-41 -3.5334e-41 -4.689e-42 3.1875e-41 -2.2e-42 -3.4179e-41 -5.5215e-41 -1.2495006e-38
9.06194e-40 5.6527e-41 -3.8792063e-29 -9.622093e-29 -2.151938e-38 -5.096e-41 6.7615e-41 6.7006e-41
-6.2945e-41 3.4358e-41 -6.0944e-41 4.9565e-41 6.9116e-41 5.6014e-41 3.5649e-41 -1.5392e-41
7.636e-42 -5.8131e-41 6.4265e-41 6.6682e-41 7.3015e-41 3.236e-42 -7.0375e-41 8.6977e-41
8.25e-43 5.8693e-41 -6.1189e-41 5.088e-41 8.186e-42 -7.845e-41 4.0654e-41 1.7558e-41
7.1329e-41 -6.3849e-41 -5.688e-41 -5.5835e-41 1.23903e-40 -8.9956e-41 1.45516e-40 3.3893e-41
-5.1743e-41 4.9791e-41 -4.8306e-41 -5.7072e-41 -3.8186347e-26 -2.104e-41 -5.608e-42 1.5243e-41
7.17e-42 2.5543e-41 6.285e-41 -8.6949e-41 -3.4518e-41 -6.5144e-41 -7.0348837e-31 -3.7221e-41
-7.0911e-41 6.0545e-41 -2.3613e-41 -9.217779e-30 2.5892e-41 -6.702e-41 6.614e-41 -1.3542e-41
-1.85898e-26 6.819e-41 6.3333e-41 5.7798e-41 5.5524e-41 6.3767e-41 -8.3213e-41 -2.5e-42
-5.1463e-41 1.7342e-41 -1.0424e-41 -8.457e-41 -4.3964e-41 3.377e-42 -7.5656e-41 -4.7856e-41
1.06834e-40 -1.25541e-40 7.2299e-41 -8.93e-42 -6.6513e-41 4.6257e-41 -9.7637e-41 -7.3979e-41
-4.1313e-41 9.1714e-41 8.383e-41 -1.06733e-40 -2.6193e-41 -4.6956e-41 -6.1521e-41 -7.2954e-41
-1.1761e-41 -7.1758e-41 -7.8454e-41 4.8617e-41 -6.7059e-41 8.08e-41 -2.431e-42 -4.8214e-41
1.9397e-41 6.0037e-41 -3.2562e-41 2.4306e-41 1.1918e-41 1.05109e-40 -4.7431e-41 3.414e-42
7.108e-41 -4.477e-41 -5.357e-42 5.2189e-41 7.7905e-41 -2.696e-42 6.2319e-41 -9.29e-43
4.4907e-41 -6.9184e-41 3.5788e-41 -3.1438e-41 6.797e-41 7.803e-41 -4.7874e-41 -1.3598e-41
3.6243e-41 4.2169e-41 8.048e-42 -1.57e-41 -5.8078e-41 6.3136e-41 -3.4157e-41 -8.466e-41
-1.4932e-41 -9.2133e-41 4.2855e-41 9.2906e-41 5.6137e-41 -2.7809e-41 -1.1e-41 -5.0601e-41
2.1779462e-36 1.30642e-40 -6.6862e-41 6.1154e-41 4.934e-42 1.403563e-39 6.381e-41 1.181e-42
4.2022e-41 6.0245e-41 3.9433e-41 5.4838e-41 -1.4729e-41 5.6517e-41 3.9256e-41 -6.2812e-41
1.9337e-41 -5.8671e-41 6.03e-41 8.214135e-36 -3.3583808e-28 1.7679e-41 -1.9156e-41 -3.3855e-41
-7.5642333e-31 8.1937e-41 -3.0806e-41 -3.1163e-41 -8.5369e-41 7.118e-41 -3.2058e-41 -8.3917e-41
7.1783e-41 2.8399e-41 6.9242e-41 -4.156e-41 -8.2929e-41 7.5618e-41 -2.1694e-41 -6.216e-41
5.44e-43 -2.9447e-41 7.724e-41 -1.459e-41 9.6e-43 -5.3315e-41 6.8743e-41 5.04e-42
8.0234e-41 -6.9127e-41 5.9334e-41 1.4405e-41 8.1764e-41 -4.6572e-41 7.2947e-41 3.7793e-41
00000000: d808 0080 d402 0000 5a12 0180 d30a 0000
00000010: 4e99 0080 9883 0000 eeba 0000 e2b1 0080
00000020: 1e36 0080 7c14 0000 b082 0080 c76e 0000
00000030: 0133 0080 ab0c 0180 5036 0000 9bfc 0000
00000040: bd7d 0180 c796 0080 3b19 0100 4d35 0080
00000050: 5d4b 0100 99f2 0000 f3f5 0000 495a 0000
00000060: 80c2 0000 a0fd 5c9a 684b 0000 971a 0080
00000070: 4907 0080 332b 0000 ca78 3599 0e1b 0000
00000080: f744 0080 4f55 0000 5219 0000 0a1e 0100
00000090: 45ab 0100 9e0f 6e08 4635 6a05 4334 0000
000000a0: 3b8d 0080 65af 0080 6f42 0080 6b64 0000
000000b0: 8aef 0000 40af 0000 1940 0000 0df3 0080
000000c0: addd 0080 7f62 0080 120d 0080 db58 0000
000000d0: 2206 0080 475f 0080 eb99 0080 fe0e 8880
000000e0: 1ade 0900 939d 0000 fab2 4490 f4f2 f390
000000f0: 4753 ea80 0e8e 0080 7cbc 0000 c9ba 0000
00000100: 77af 0080 c75f 0000 e3a9 0080 2b8a 0000
00000110: abc0 0000 259c 0000 6063 0000 e82a 0080
00000120: 4915 0000 0ca2 0080 25b3 0000 e2b9 0000
00000130: 89cb 0000 0509 0000 2dc4 0080 75f2 0000
00000140: 4d02 0000 9da3 0000 92aa 0080 d58d 0000
00000150: d216 0000 b0da 0080 5471 0000 f230 0000
00000160: d6c6 0000 fcb1 0080 8f9e 0080 a59b 0080
00000170: 6459 0100 c3fa 0080 a495 0100 7b5e 0000
00000180: 3d90 0080 cc8a 0000 a886 0080 189f 0080
00000190: f216 3d95 a73a 0080 a20f 0080 7e2a 0000
000001a0: fd13 0000 3447 0000 33af 0000 61f2 0080
000001b0: 3960 0080 98b5 0080 874b 648d c267 0080
000001c0: acc5 0080 c6a8 0000 d341 0080 72f5 3a8f
000001d0: 2d48 0000 d3ba 0080 5fb8 0000 c025 0080
000001e0: be1a b894 16be 0000 8cb0 0000 1ea1 0000
000001f0: c79a 0000 c2b1 0000 f7e7 0080 f806 0080
00000200: 758f 0080 5830 0000 0f1d 0080 bfeb 0080
00000210: 8e7a 0080 6a09 0000 e6d2 0080 6785 0080
00000220: cf29 0100 f55d 0180 8ac9 0000 e518 0080
00000230: 69b9 0080 f280 0000 2c10 0180 39ce 0080
00000240: 2a73 0080 a9ff 0000 afe9 0000 8729 0180
00000250: 0449 0080 e582 0080 7fab 0080 5ecb 0080
00000260: c920 0080 08c8 0080 b3da 0080 8687 0000
00000270: efba 0080 3de1 0000 c706 0080 6786 0080
00000280: 1236 0000 5ca7 0000 c55a 0080 c143 0000
00000290: 3921 0000 0025 0100 3884 0080 8409 0000
000002a0: 24c6 0000 cd7c 0080 ef0e 0080 7b91 0000
000002b0: 2bd9 0000 8407 0080 b8ad 0000 9702 0080
000002c0: 2f7d 0000 dbc0 0080 c363 0000 a357 0080
000002d0: 79bd 0000 84d9 0000 7485 0080 e825 0080
000002e0: 0865 0000 8d75 0000 6f16 0000 c42b 0080
000002f0: e6a1 0080 ffaf 0000 375f 0080 ffeb 0080
00000300: a029 0080 d400 0180 7677 0000 fc02 0100
00000310: 7d9c 0000 854d 0080 aa1e 0080 0e8d 0080
00000320: 7847 3904 2d6c 0100 62ba 0080 79aa 0000
00000330: c10d 0000 9048 0f00 e0b1 0000 4b03 0000
00000340: 2475 0000 f0a7 0000 ec6d 0000 de98 0000
00000350: 0f29 0080 8c9d 0000 6e6d 0000 18af 0080
00000360: e735 0000 8da3 0080 18a8 0000 01b2 2e05
00000370: d8dc d491 4831 0000 6635 0080 605e 0080
00000380: 3179 758d 68e4 0000 e055 0080 df56 0080
00000390: f9ed 0080 6cc6 0000 5d59 0080 ede9 0080
000003a0: 1ac8 0000 2a4f 0000 05c1 0000 da73 0080
000003b0: 2ce7 0080 cbd2 0000 793c 0080 47ad 0080
000003c0: 8401 0000 1652 0080 50d7 0000 ac28 0080
000003d0: ad02 0000 9f94 0080 a1bf 0000 0d0e 0000
000003e0: a9df 0000 b3c0 0080 66a5 0000 2828 0000
000003f0: ede3 0000 d381 0080 59cb 0000 5a69 0000

denseLayer.1.bias f4 [160]
4.5324e-41 0.15973589 -0.16293444 0.006712919 0.15341207 -0.03855739 -0.017119575 -0.00010950567
0.10131679 0.08351801 -0.00057085516 -0.01609229 -2.6652243e-08 0.03134404 -0.0015728296 -0.00021943265
-0.0021783644 -0.08104404 0.0066869683 0.022328474 -0.004185077 0.12366665 -0.074403495 0.16351229
0.08063245 -0.088416874 -0.06738186 0.014536374 0.094905734 0.069036886 0.10400253 0.25986055
-0.009065171 0.07347555 -0.0645288 0.12856884 0.032342 -0.087676436 0.0023186964 -1.136643e-15
-4.0079414e-13 -0.09584213 -0.002262088 -4.547535e-09 -0.22199374 -0.071842805 0.031152582 0.10796119
0.15097347 -5.2509933e-13 0.059303064 -0.20480445 -0.0019358618 0.0014217522 -4.4443004e-06 0.13631909
0.082209356 -0.0022556437 0.05285809 0.095633306 0.040048216 -0.027941605 -0.0019544363 -0.004394819
-0.15406764 0.017878013 0.0013260937 0.0026385386 -0.010996673 -0.0037267266 -0.1829981 0.031171585
-0.031418953 0.041197043 0.0051327446 0.087817095 -0.06649259 -0.009049876 -0.019675717 -7.106e-42
-0.008292216 -0.0019475461 0.19111226 -0.26179245 0.04016971 -1.1523756e-06 0.11660423 -4.9682e-41
0.10985487 -0.14304063 -0.24284668 -0.0038891062 -0.03415891 0.048607435 -0.21090584 -0.034846753
-1.4494542e-27 -0.039420325 0.18052691 0.048658192 0.013664565 0.03447938 0.12105462 -0.15131694
0.1751729 0.1746103 0.08976829 -0.00035204712 -0.016017823 -0.1505761 -0.07294141 0.18810856
0.0076203863 0.01295409 0.21322568 -0.13376862 -0.09872813 0.167803 6.3349676e-06 0.11113418
0.084419526 0.052801058 0.19898358 0.06702968 0.02472229 -0.011078252 -0.09324736 -0.002559994
-0.0018766451 0.1599842 -2.674e-41 -0.020799246 -0.02639194 0.22050743 0.005225391 -0.05342851
0.1918565 -0.00017632685 -3.802988e-12 0.16252811 0.06961593 0.15771393 0.0782762 -3.698e-41
0.14033842 -0.23992969 -0.067670405 0.268314 -1.8592669e-12 0.05099893 0.07631371 -0.0049657156
0.0055617327 -0.03614101 -4.346793e-08 0.04309388 0.0071623567 -2.5780725e-11 4.6085e-41 0.15831505
00000000: 587e 0000 ce91 233e 49d8 26be 0cf8 db3b
00000010: 0e18 1d3e 5bee 1dbd 5a3e 8cbc 69a6 e5b8
00000020: 2d7f cf3d 7e0b ab3d 71a5 15ba fad3 83bc
00000030: e7f0 e4b2 9c62 003d 6727 ceba 8117 66b9
00000040: e4c2 0ebb 6bfa a5bd 5b1e db3b 34ea b63c
00000050: f822 89bb f144 fd3d dc60 98bd c46f 273e
00000060: a022 a53d e813 b5bd 80ff 89bd f929 6e3c
00000070: f05d c23d 3663 8d3d 47ff d43d 710c 853e
00000080: 1586 14bc 597a 963d ad27 84bd 8da7 033e
00000090: 0c79 043d b48f b3bd 45f5 173b bace a3a6
000000a0: 86a0 e1aa e148 c4bd 8a3f 14bb 8a40 9cb1
000000b0: 5452 63be 5222 93bd b333 ff3c c21a dd3d
000000c0: ca98 1a3e 65cd 13ab c5e7 723d 42b8 51be
000000d0: bebc fdba 165a ba3a 4020 95b6 3b97 0b3e
000000e0: 615d a83d 6cd3 13bb b981 583d 65db c33d
000000f0: 9909 243d cbe5 e4bc 0016 00bb 6a02 90bb
00000100: e8c3 1dbe e974 923c 52d0 ad3a 55eb 2c3b
00000110: 642b 34bc 193c 74bb db63 3bbe 8d5b ff3c
00000120: 29b1 00bd 3bbe 283d 9530 a83b 73d9 b33d
00000130: 442d 88bd ee45 14bc f82e a1bc cf13 0080
00000140: 13dc 07bc ce44 ffba efb2 433e a909 86be
00000150: fe88 243d 53ab 9ab5 33ce ee3d 7e8a 0080
00000160: 97fb e03d 3e79 12be cdac 78be 60e0 7ebb
00000170: 37ea 0bbd 9718 473d b3f7 57be 78bb 0ebd
00000180: d9ac e592 3577 21bd 0cdc 383e d04d 473d
00000190: 57e1 5f3c 403a 0d3d 7ceb f73d d4f2 1abe
000001a0: 8660 333e 0bcd 323e 70d8 b73d f792 b8b9
000001b0: cf37 83bc 9f30 1abe 4e62 95bd 889f 403e
000001c0: 6fb4 f93b 643d 543c d557 5a3e a4fa 08be
000001d0: f931 cabd 8dd4 2b3e f590 d436 519a e33d
000001e0: 25e4 ac3d ec45 583d 5ac2 4b3e db46 893d
000001f0: 6686 ca3c 8f81 35bc 79f8 bebd 93c5 27bb
00000200: c3f9 f5ba e6d2 233e 8a4a 0080 2e63 aabc
00000210: e933 d8bc b3cc 613e c239 ab3b dad7 5abd
00000220: 0876 443e 61e4 38b9 45ce 85ac c56d 263e
00000230: cc92 8e3d c37f 213e 464f a03d 1667 0080
00000240: e0b4 0f3e 21b0 75be c896 8abd 7460 893e
00000250: 93d5 02ac 41e4 503d 5d4a 9c3d 71b7 a2bb
00000260: 323f b63b 9808 14bd 7fb1 3ab3 3583 303d
00000270: 34b2 ea3b 08c5 e2ad 7780 0000 571d 223e

denseLayer.4.weight f4 [104, 160]
-3.8822368e-19 0.1739608 -0.026818 0.11627293 0.08414322 0.31280142 -0.48071975 -0.0006836638
0.21835151 0.15399581 9.2705406e-05 0.05026915 0.0020757373 0.09779788 0.0201857 2.34e-42
0.0031661922 -0.0977539 -0.062582254 -0.0021785954 -0.22864175 -0.22572185 0.06299672 0.054400295
0.06817364 -0.13161258 0.03837008 0.0045099603 0.03023008 -0.15929987 0.07462033 0.14271972
0.09488251 0.030725667 -0.13142817 0.1878671 -0.14536363 -0.0016334604 -0.021169286 -6.201308e-10
-4.413597e-06 -0.09455541 -0.0038436048 0.00025473582 -0.21082419 0.033369843 -0.14776345 -0.22258492
0.1981682 -7.9248e-41 0.12153104 0.2353954 0.057738807 -0.05525731 -0.00053952774 -0.16262205
-0.11015406 0.1616912 0.06317845 -0.18544325 0.028972164 0.04599525 0.0047618267 -6.3777254e-05
0.15287179 -0.18716705 -0.004962412 0.18457426 0.0108478535 0.00059661345 0.16381818 -0.21476151
-0.33868074 0.05396592 -0.111846894 -0.124356575 -0.14886364 -0.15503787 0.046547487 -9.043987e-06
-0.0037215073 -0.00038244427 0.016098727 -0.030078907 0.08365257 0.00016330408 -0.13580343 -1.2536347e-06
0.18227719 0.029097935 0.16986787 -0.0015831845 0.32959333 0.13400671 0.062345088 0.05207275
5.983635e-10 0.14472502 -0.06731122 -0.01139104 0.005968951 -0.10527472 0.13702923 0.18570635
-0.19352137 -0.041602876 0.064742886 0.07213601 0.047983576 0.22222093 -0.16261153 0.029826345
-0.07982433 0.068581164 0.15943003 0.036439247 -0.026581323 0.040677648 1.12960535e-07 0.047910713
0.16108182 0.15524857 0.21425425 -0.35762876 -0.018789852 -0.1456396 0.045274083 0.1905578
-0.0007279828 0.021163313 -5.6701215e-13 0.015524389 0.08604413 -0.0026812793 0.02990828 -0.46414796
-0.030453458 -0.00094343384 0.00035369772 -0.13811491 -0.09491632 0.23154134 0.19357932 0.0011552131
0.053721204 -0.2393973 0.17342009 0.16046982 -0.0001527145 0.12679051 -0.1875095 -0.056177527
-0.09507351 0.24060766 1.2784238e-08 0.26432317 0.04997812 1.2477233e-08 1.06672275e-26 -0.15356322
4.1861e-41 0.1352634 -0.17177054 -0.12469513 0.077159196 0.24360533 -0.06490975 0.0015028531
0.19159378 0.025438676 2.1170783e-05 -0.17509519 -0.001042636 0.046386614 -0.00059472484 2.5054e-41
0.0017409222 -0.08069613 0.13228713 0.084803425 0.09786988 0.10312882 -0.05617479 -0.301846
-0.11213772 0.16683242 0.12964453 0.03730806 0.16849938 -0.18539739 0.05765746 0.07521769
0.0055135232 0.24540631 -0.019501792 0.00036622563 -0.031229876 0.11170872 -0.04172415 1.3706328e-07
1.49624e-08 -0.08634835 -0.0007649686 4.6807927e-05 0.064835116 -0.0029105376 0.046153557 -0.10101819
-0.10449674 -3.4668e-41 -0.033238046 0.012681645 0.15655911 -0.08226417 0.0011363622 0.12816696
0.025395142 -0.16069518 0.012912434 0.115291774 0.08848692 0.0042664837 0.011547223 0.0022727074
0.06123265 0.11038649 0.046454653 0.08328138 0.14833096 0.004056372 -0.0844704 0.16307783
-0.13821451 -0.12262819 0.06946302 -0.008420805 -0.098584086 -0.13176697 -0.07683363 -6.55349e-09
-0.18815921 0.0046808473 0.25536734 0.04834952 0.22189808 2.1153019e-06 0.16789912 -1.5653761e-07
0.16862531 0.18874404 0.04406458 -0.000926298 -0.14011209 -0.025667356 -0.05412688 0.09066478
00000000: b42a e5a0 c822 323e 6cb1 dbbc 8020 ee3d
00000010: 4853 ac3d 8227 a03e e620 f6be e737 33ba
00000020: 8a97 5f3e 14b1 1d3e d66a c238 06e7 4d3d
00000030: 1809 083b 414a c83d 7b5c a53c 8606 0000
00000040: e47f 4f3b 3233 c8bd 202b 80bd c4c6 0ebb
00000050: 1021 6abe a123 67be 6d04 813d d8d2 5e3d
00000060: 9f9e 8b3d 73c5 06be f229 1d3d 4ac8 933b
00000070: 13a5 f73c 811f 23be 8bd2 983d 1e25 123e
00000080: c351 c23d 65b4 fb3c 1b95 06be 3c60 403e
00000090: 34da 14be d619 d6ba 366b adbc d375 2ab0
000000a0: 8218 94b6 44a6 c1bd fde4 7bbb 108e 8539
000000b0: 4ce2 57be d1ae 083d 4d4f 17be 4ded 63be
000000c0: 9bec 4a3e e9dc 0080 44e5 f83d 7e0b 713e
000000d0: 877f 6c3d 7d55 62bd 186f 0dba 6586 26be
000000e0: 7498 e1bd 6192 253e b463 813d d6e4 3dbe
000000f0: 0857 ed3c 8465 3c3d 1909 9c3b 27c0 85b8
00000100: 6c8a 1c3e b8a8 3fbe bb9b a2bb 0901 3d3e
00000110: 32bb 313c 0d66 1c3a f4bf 273e 71ea 5bbe
00000120: 9067 adbe 5e0b 5d3d fc0f e5bd a9ae febd
00000130: b66f 18be 3fc2 1ebe 94a8 3e3d a1bb 17b7
00000140: 88e4 73bb cd82 c8b9 7ae1 833c 0a68 f6bc
00000150: 0a52 ab3d 9b3c 2b39 0e10 0bbe 8f42 a8b5
00000160: dfa6 3a3e cb5e ee3c d8f1 2d3e db82 cfba
00000170: 75c0 a83e 0e39 093e 905d 7f3d 3c4a 553d
00000180: 177a 2430 cc32 143e 77da 89bd 7ca1 3abc
00000190: 3197 c33b 469a d7bd 6451 0c3e ce29 3e3e
000001a0: 772a 46be c767 2abd eb97 843d 0bbc 933d
000001b0: 6d8a 443d e28d 633e a383 26be 6156 f43c
000001c0: f07a a3bd 4874 8c3d a041 233e 5241 153d
000001d0: 13c1 d9bc 9b9d 263d b694 f233 063e 443d
000001e0: a2f2 243e 7bf9 1e3e 7765 5b3e 1e1b b7be
000001f0: 2ded 99bc 8c22 15be 5171 393d 9521 433e
00000200: 19d6 3eba af5e ad3c 8899 1fab 025a 7e3c
00000210: e837 b03d 67b8 2fbb 3602 f53c cda4 edbe
00000220: 8879 f9bc c650 77ba 8170 b939 ff6d 0dbe
00000230: 7d63 c2bd 2c19 6d3e a839 463e 856a 973a
00000240: c40a 5c3d 9124 75be 0995 313e 3352 243e
00000250: fd21 20b9 5fd5 013e 7e02 40be 681a 66bd
00000260: e7b5 c2bd db61 763e aca1 5b32 5e55 873e
00000270: dbb5 4c3d 735b 5632 4549 5314 ad3f 1dbe
00000280: b174 0000 7d82 0a3e 9ee4 2fbe 2960 ffbd
00000290: a405 9e3d ad73 793e 67ef 84bd 62fb c43a
000002a0: 2931 443e c564 d03c e997 b137 274c 33be
000002b0: 0fa9 88ba e4ff 3d3d 4fe7 1bba d745 0000
000002c0: a82f e43a 0344 a5bd 4776 073e 6bad ad3d
000002d0: 0170 c83d 3435 d33d 8917 66bd 8f8b 9abe
000002e0: 76a8 e5bd 1ed6 2a3e 89c1 043e 56d0 183d
000002f0: 1a8b 2c3e d0d8 3dbe 3b2a 6c3d bb0b 9a3d
00000300: c9aa b43b cb4b 7b3e 39c2 9fbc f901 c039
00000310: ccd5 ffbc 8bc7 e43d f1e6 2abd ab2b 1334
00000320: aa86 8032 67d7 b0bd 2c88 48ba a153 4438
00000330: 46c8 843d b8be 3ebb 830b 3d3d a0e2 cebd
00000340: 6302 d6bd a460 0080 9e24 08bd adc6 4f3c
00000350: 0851 203e 1e7a a8bd fdf1 943a 333e 033e
00000360: 7909 d03c 478d 24be ac8e 533c 181e ec3d
00000370: a138 b53d dccd 8b3b 9030 3d3c b4f1 143b
00000380: 16cf 7a3d 5012 e23d 3c47 3e3d 6e8f aa3d
00000390: 12e4 173e 51eb 843b d1fe acbd e0fd 263e
000003a0: 1b88 0dbe 7d24 fbbd a142 8e3d 6bf7 09bc
000003b0: 74e6 c9bd eced 06be f35a 9dbd 1c2d e1b1
000003c0: cfac 40be cb61 993b 82bf 823e 250a 463d
000003d0: 4039 633e 9cf4 0d36 bfed 2b3e bb14 28b4
000003e0: 1dac 2c3e 1e46 413e 107d 343d ced2 72ba
000003f0: 8b79 0fbe 5944 d2bc 26b4 5dbd 75ae b93d

denseLayer.4.bias f4 [104]
0.14198484 0.14919715 0.10118391 0.06863026 0.1499206 0.15570477 -0.16895035 0.13795143
0.073526375 -0.072468154 0.17951229 0.023571964 0.22662698 0.16003184 -0.021404326 0.026180472
-0.06549121 0.03665931 0.037167262 0.1951537 0.11825078 -0.08636514 0.25750092 0.21909711
0.15497185 0.21169898 0.33780995 0.16523258 -0.09874889 -0.03304719 0.053583317 0.18548527
0.14591369 0.08974772 0.39480335 0.19481798 0.0033742578 0.23216179 -0.10603318 0.03659369
0.21178214 -0.047560535 0.06978132 -0.031353433 0.23750623 0.21688516 0.20434606 0.27864617
0.15311506 0.19210733 -0.1293275 0.39822674 -0.011881535 0.1606699 0.111062266 0.13719757
0.07474052 0.07414633 0.16994725 0.18478133 0.25959575 0.0076884027 -0.028912542 0.24490187
0.009843182 0.1286549 -0.034199074 -0.11918681 0.22886844 -0.10387637 -0.18565395 0.31241578
-0.01884825 0.07605202 -0.054528467 -0.06048579 0.11788862 -0.009603642 0.04977006 0.04361097
0.05776239 0.17453451 0.19193695 -0.022734132 0.15973726 0.1649549 0.10598354 0.1299985
0.1816012 0.18378437 0.09842318 0.050872937 0.3328791 0.060314156 0.24040852 0.15168972
-0.08641495 0.011986142 -0.04806202 0.20436622 0.055018865 0.14287172 0.13531218 0.044111338
00000000: 7964 113e 23c7 183e 8339 cf3d 068e 8c3d
00000010: c984 193e 1271 1f3e 5201 2dbe 2443 0d3e
00000020: ff94 963d 2f6a 94bd 12d2 373e fe19 c13c
00000030: e710 683e 63df 233e 2058 afbc 6e78 d63c
00000040: 4120 86bd 1328 163d b33c 183d 5fd6 473e
00000050: 772d f23d 35e0 b0bd 29d7 833e fe5a 603e
00000060: f1b0 1e3e 9ec7 583e 6df5 ac3e bb32 293e
00000070: dc3c cabd 7e5c 07bd 2e7a 5b3d daef 3d3e
00000080: 666a 153e a7cd b73d aa23 ca3e 5d7e 473e
00000090: a722 5d3b d2bb 6d3e ed27 d9bd 44e3 153d
000000a0: 6bdd 583e d6ce 42bd 82e9 8e3d 756c 00bd
000000b0: d534 733e 2517 5e3e 1840 513e b6aa 8e3e
000000c0: 32ca 1c3e c9b7 443e 6e6e 04be 60e4 cb3e
000000d0: c5aa 42bc a686 243e 9d74 e33d 857d 0c3e
000000e0: 8f11 993d 08da 973d a706 2e3e 5137 3d3e
000000f0: bce9 843e ffee fb3b ffd9 ecbc 8ec7 7a3e
00000100: 4c45 213c 1cbe 033e 5414 0cbd 3718 f4bd
00000110: 7d5c 6a3e 22bd d4bd 121c 3ebe f6f4 9f3e
00000120: a567 9abc 29c1 9b3d 3e59 5fbd f3bf 77bd
00000130: 976f f13d 9858 1dbc b1db 4b3d 6ba1 323d
00000140: 4198 6c3d 2db9 323e 1f8b 443e ee3c babc
00000150: 2a92 233e f0e9 283e e60d d93d 541e 053e
00000160: aaf5 393e f831 3c3e 1892 c93d 2460 503d
00000170: 216f aa3e fa0b 773d a72d 763e 8d54 1b3e
00000180: 52fa b0bd 8661 443c aedc 44bd 6145 513e
00000190: 765b 613d f74c 123e 478f 0a3e 17ae 343d

denseLayer.6.weight f4 [10, 104]
0.32548946 0.066629134 0.18551101 0.07834045 0.2742837 0.23515654 0.22495706 -0.14639486
-0.29077026 0.21745974 -0.25479275 0.14435598 -0.3100567 0.01775936 0.2344928 0.107023135
0.2586158 0.12555693 0.5734964 -0.11032028 0.14601228 0.27630866 -0.14847723 -0.24195625
-0.4559 -0.18350418 -0.5347392 -0.22488213 0.4667474 -0.24258064 0.25175706 -0.42808598
0.10494321 -0.050663378 -0.9314109 -0.19295995 -0.48254618 0.28592226 0.07393442 -0.2723049
0.0784756 -0.5255299 -0.0230479 0.19424327 -0.1765749 -0.28127784 0.25457737 -0.21026886
-0.41615158 -0.3861397 0.2842448 -0.92051256 0.19369173 -0.034440346 0.25048298 0.0277626
-0.08089717 -0.6700201 -0.047940493 0.20493214 -0.72358215 -0.30335137 0.05432727 0.16880403
0.31614172 -0.29225683 0.26345995 0.033072405 -0.12530477 0.4312696 0.15147609 -0.3716488
-0.52573204 -0.30976468 0.25955224 0.60886097 0.102159485 0.088229895 0.23284942 -0.052226525
-0.18232176 0.18160975 0.29211006 0.29941368 -0.04674972 -0.22304617 -0.20310518 -0.89449966
0.14417516 -0.022302432 -0.22984122 0.3615799 -0.6352803 0.057255227 0.19545744 0.2766997
-0.16758105 0.23417039 0.08889676 -0.30537766 0.14831561 0.25545552 -0.36085564 0.044304848
-0.006323485 -0.034684125 0.039441403 -0.4219705 0.22024317 -0.6654108 0.38879246 0.15307689
0.34852403 0.15677215 -0.31406233 0.25875652 -0.48190236 0.16897705 0.06133129 -0.4048207
-0.33963472 0.23940256 -0.32260543 0.35304973 -0.37657863 -0.45099014 -0.41695675 -0.5549246
-0.012754742 -0.8786892 -0.22370969 -0.006034663 -0.2921985 0.30901223 -0.016395483 -0.37782845
0.21107961 -0.090326555 0.22549923 -0.709948 0.7078567 0.033780664 -0.08603907 -0.13214634
0.23940888 0.2881458 0.24958244 0.09621353 -0.021072773 -0.62249553 0.089758344 -0.34750977
-0.030419104 -0.0357073 0.3371155 0.28341144 0.0015928595 0.17572685 0.14192846 0.22729807
-0.4920831 0.25977018 -0.21728803 -0.4936299 0.18879382 0.32781008 0.15329565 -0.001650289
-0.34282258 0.43982658 0.043209255 0.17518048 -0.11729928 -0.31314486 -0.009919582 -0.7743532
0.014204646 -0.007952289 -0.034530014 0.31128055 0.2618609 0.17781101 0.08179801 -0.66352195
0.180041 0.037394322 0.01745002 -0.5720877 -0.24803962 -0.06717424 0.10780115 0.26108843
-0.07192628 0.0845637 -0.023520822 -0.120185316 -0.15718614 -0.07084286 -0.4618507 0.10025225
-0.18486644 -0.5798143 -0.17960118 0.14876804 -0.6288289 -0.12115381 0.0918572 -0.08117931
-0.5131115 -0.7353756 -0.24336609 0.5063356 0.009459105 0.11628529 -0.12651591 -0.42733744
0.35164472 0.04129364 -0.23349307 0.18386959 0.020261463 -0.007778719 0.33460155 0.09544468
0.41510847 -0.597617 -0.5105661 -0.50450575 0.19511832 0.1279252 0.12402421 0.14235392
-0.633516 0.09318653 -0.17522153 -0.18124656 0.14987509 0.12672776 -0.28470382 0.12097664
-0.47206467 -0.033313833 -0.07549903 0.20028931 0.041560926 -0.10050454 0.48636603 0.43118772
-0.22131033 0.94395417 0.07997326 0.22298199 -0.60859185 -0.12171535 0.093618035 -0.5055074
00000000: 8ea6 a63e db74 883d 99f6 3d3e f570 a03d
00000010: ea6e 8c3e e0cc 703e 255b 663e 89e8 15be
00000020: d7df 94be c4ad 5e3e 3274 82be 0ed2 133e
00000030: c0bf 9ebe 147c 913c e11e 703e f22e db3d
00000040: 4a69 843e ff91 003e a9d0 123f 99ef e1bd
00000050: 3e84 153e 5478 8d3e 6a0a 18be 61c3 77be
00000060: ba6b e9be 85e8 3bbe abe4 08bf 8047 66be
00000070: 84f9 ee3e 0f67 78be 4de6 803e 162e dbbe
00000080: 77ec d63d 6784 4fbd f270 6ebf 4b97 45be
00000090: 4b10 f7be 6764 923e ee6a 973d 8c6b 8bbe
000000a0: d1b7 a03d 2189 06bf f3ce bcbc b5e7 463e
000000b0: 0dd0 34be a603 90be f757 823e b850 57be
000000c0: d211 d5be 1ab4 c5be 8988 913e b6a6 6bbf
000000d0: 2057 463e 5211 0dbd 4e3f 803e 646e e33c
000000e0: 6aad a5bd 7086 2bbf 405d 44bd bbd9 513e
000000f0: ae3c 39bf df50 9bbe 4586 5e3d f7da 2c3e
00000100: 54dd a13e b0a2 95be 39e4 863e ee76 073d
00000110: e54f 00be 5ecf dc3e 8c1c 1b3e c048 bebe
00000120: 6096 06bf 7a99 9ebe 08e4 843e 50de 1b3f
00000130: fe38 d13d e0b1 b43d 1470 6e3e 7beb 55bd
00000140: 8eb2 3abe e8f7 393e 738f 953e c04c 993e
00000150: a27c 3fbd 3766 64be cefa 4fbe eefd 64bf
00000160: a7a2 133e 97b3 b6bc 7f5b 6bbe 0021 b93e
00000170: bba1 22bf 7584 6a3d ff25 483e 95ab 8d3e
00000180: 5e9a 2bbe 5dca 6f3e 810f b63d 765a 9cbe
00000190: 0ce0 173e 11cb 823e 12c2 b8be 0079 353d
000001a0: 3d35 cfbb f110 0ebd 4f8d 213d 840c d8be
000001b0: 6d87 613e 5d58 2abf ce0f c73e 30c0 1c3e
000001c0: be71 b23e e188 203e c7cc a0be bc7b 843e
000001d0: e8bb f6be 5208 2d3e 8536 7b3d a944 cfbe
000001e0: 9ae4 adbe f225 753e 8a2c a5be efc2 b43e
000001f0: eace c0be 2ee8 e6be 5b7b d5be 8a0f 0ebf
00000200: 44f9 50bc c7f1 60bf 2714 65be 6cbe c5bb
00000210: 0b9b 95be da36 9e3e d24f 86bc bb72 c1be
00000220: 4125 583e 21fd b8bd 45e9 663e 27bf 35bf
00000230: 1936 353f 985d 0a3d 4035 b0bd 5f51 07be
00000240: 9a27 753e d987 933e 8a92 7f3e 990b c53d
00000250: cfa0 acbc de5b 1fbf 39d3 b73d cdec b1be
00000260: 7c31 f9bc d141 12bd 679a ac3e 4e1b 913e
00000270: 7fc7 d03a bdf1 333e b255 113e d3c0 683e
00000280: 51f2 fbbe 9900 853e c180 5ebe 0fbd fcbe
00000290: 2b53 413e b9d6 a73e 89f9 1c3e 834e d8ba
000002a0: 7186 afbe f330 e13e 30fc 303d 8362 333e
000002b0: 9b3a f0bd 8654 a0be be85 22bc 033c 46bf
000002c0: 9bba 683c 514a 02bc 586f 0dbd 2a60 9f3e
000002d0: a212 863e 1714 363e b785 a73d 93dc 29bf
000002e0: ab5c 383e ca2a 193d 58f3 8e3c 5774 12bf
000002f0: 19fe 7dbe a692 89bd d9c6 dc3d 62ad 853e
00000300: 164e 93bd bc2f ad3d bdae c0bc b823 f6bd
00000310: 67f5 20be 1016 91bd b277 ecbe 0d51 cd3d
00000320: a14d 3dbe b66e 14bf 5fe9 37be a656 183e
00000330: eefa 20bf 7d1f f8bd a11f bc3d 5741 a6bd
00000340: 465b 03bf 9341 3cbf f634 79be 369f 013f
00000350: 5dfa 1a3c fb26 ee3d 638d 01be f9cb dabe
00000360: c70a b43e 8523 293d cf18 6fbe 4f48 3c3e
00000370: 5efb a53c a0e4 febb e550 ab3e 8078 c33d
00000380: 1989 d43e 6dfd 18bf 76b4 02bf 4a27 01bf
00000390: 19cd 473e d3fe 023e 6800 fe3d 3ac5 113e
000003a0: 1b2e 22bf 94d8 be3d 466d 33be b398 39be
000003b0: db78 193e ecc4 013e b3c4 91be 9ac2 f73d
000003c0: 76b2 f1be 1674 08bd 3c9f 9abd a418 4d3e
000003d0: ca3b 2a3d 53d5 cdbd f804 f93e a3c4 dc3e
000003e0: 2d9f 62be fba6 713f 05c9 a33d 6455 643e
000003f0: adcc 1bbf e645 f9bd d0ba bf3d ef68 01bf

denseLayer.6.bias f4 [10]
-0.20690817 -0.108296655 -0.10048181 -0.0035988032 0.22622585 0.07230368 -0.04735018 0.019595578
0.03956694 0.07675402
00000000: bcdf 53be a3ca ddbd 68c9 cdbd e6d9 6bbb
00000010: c0a7 673e f413 943d 43f2 41bd e886 a03c
00000020: f210 223d 3631 9d3d
